…
da_proposal=1, lambda_distort=0.02, with_mask=True, lightweight_mask=False, n_inst=2, label_regularization_weight=0.0, patch_size=1, mask_folder_name='masks', use_wandb=False, use_point=False, val_all=False, render_mask_type='composition', render_mask_instance_id=1, vis_pose=False, gui=True, W=512, H=512, radius=0.5, fovy=60, max_spp=1, data_type='mip')
NeRFNetwork(
  (grid): GridEncoder: input_dim=3 num_levels=16 level_dim=2 resolution=16 -> 4096 per_level_scale=1.4473 params=(6299960, 2) gridtype=hash align_corners=False interpolation=linear
  (grid_mlp): MLP(
    (net): ModuleList(
      (0): Linear(in_features=32, out_features=64, bias=False)
      (1): Linear(in_features=64, out_features=64, bias=False)
      (2): Linear(in_features=64, out_features=16, bias=False)
    )
  )
  (view_encoder): SHEncoder: input_dim=3 degree=4
  (view_mlp): MLP(
    (net): ModuleList(
      (0): Linear(in_features=31, out_features=32, bias=False)
      (1): Linear(in_features=32, out_features=32, bias=False)
      (2): Linear(in_features=32, out_features=3, bias=False)
    )
  )
  (m_grid): GridEncoder: input_dim=3 num_levels=16 level_dim=8 resolution=16 -> 512 per_level_scale=1.2599 params=(5258512, 8) gridtype=hash align_corners=False interpolation=linear
  (mask_mlp): Sequential(
    (0): SkipConnMLP(
      (net): ModuleList(
        (0): Linear(in_features=143, out_features=256, bias=False)
        (1): Linear(in_features=256, out_features=256, bias=False)
        (2): Linear(in_features=256, out_features=2, bias=False)
      )
    )
  )
  (prop_encoders): ModuleList(
    (0): GridEncoder: input_dim=3 num_levels=5 level_dim=2 resolution=16 -> 128 per_level_scale=1.6818 params=(383264, 2) gridtype=hash align_corners=False interpolation=linear
    (1): GridEncoder: input_dim=3 num_levels=5 level_dim=2 resolution=16 -> 256 per_level_scale=2.0000 params=(430080, 2) gridtype=hash align_corners=False interpolation=linear
  )
  (prop_mlp): ModuleList(
    (0-1): 2 x MLP(
      (net): ModuleList(
        (0): Linear(in_features=10, out_features=16, bias=False)
        (1): Linear(in_features=16, out_features=1, bias=False)
      )
    )
  )
)
[INFO] Loading /ssddata/yliugu/Segment-Anything-NeRF/trial_mask_teatime/checkpoints/ngp_ep0002.pth ...
[INFO] loaded model.
[INFO] load at epoch 2, global step 618
[INFO] loaded scaler.
[INFO] Trainer: ngp | 2023-09-04_14-37-19 | cuda | fp32 | /ssddata/yliugu/Segment-Anything-NeRF/sam_mask_teatime
[INFO] #parameters: 42170752
Namespac
…
